…
mework-Example/.venv/lib/python3.9/site-packages/torchvision/models/_utils.py:223: UserWarning: Arguments other than a weight enum or `None` for 'weights' are deprecated since 0.13 and may be removed in the future. The current behavior is equivalent to passing `weights=DenseNet121_Weights.IMAGENET1K_V1`. You can also use `weights=DenseNet121_Weights.DEFAULT` to get the most up-to-date weights.\n  warnings.warn(msg)\n\n\n\ntarget_layers = [model.features[-1]]\nmodel.load_state_dict(weights['state_dict'])\nmodel = model.to(device)\nmodel.eval()\n\nDenseNet(\n  (features): Sequential(\n    (conv0): Conv2d(3, 64, kernel_size=(7, 7), stride=(2, 2), padding=(3, 3), bias=False)\n    (norm0): BatchNorm2d(64, eps=1e-05, momentum=0.1, affine=True, track_running_stats=True)\n    (relu0): ReLU(inplace=True)\n    (pool0): MaxPool2d(kernel_size=3, stride=2, padding=1, dilation=1, ceil_mode=False)\n    (denseblock1): _DenseBlock(\n      (denselayer1): _DenseLayer(\n        (norm1): BatchNorm2d(64, eps=1e-05, momentum=0.1, affine=True, track_running_stats=True)\n        (relu1): ReLU(inplace=True)\n        (conv1): Conv2d(64, 128, kernel_size=(1, 1), stride=(1, 1), bias=False)\n        (norm2): BatchNorm2d(128, eps=1e-05, momentum=0.1, affine=True, track_running_stats=True)\n        (relu2): ReLU(inplace=True)\n        (conv2): Conv2d(128, 32, kernel_size=(3, 3), stride=(1, 1), padding=(1, 1), bias=False)\n      )\n      (denselayer2): _DenseLayer(\n        (norm1): BatchNorm2d(96, eps=1e-05, momentum=0.1, affine=True, track_running_stats=True)\n        (relu1): ReLU(inplace=True)\n        (conv1): Conv2d(96, 128, kernel_size=(1, 1), stride=(1, 1), bias=False)\n        (norm2): BatchNorm2d(128, eps=1e-05, momentum=0.1, affine=True, track_running_stats=True)\n        (relu2): ReLU(inplace=True)\n        (conv2): Conv2d(128, 32, kernel_size=(3, 3), stride=(1, 1), padding=(1, 1), bias=False)\n      )\n      (denselayer3): _DenseLayer(\n        (norm1): BatchNorm2d(128, eps=1e-05, momentum=0.1, affine=True, track_running_stats=True)\n        (relu1): ReLU(inplace=True)\n        (conv1): Conv2d(128, 128, kernel_size=(1, 1), stride=(1, 1), bias=False)\n        (norm2): BatchNorm2d(128, eps=1e-05, momentum=0.1, affine=True, track_running_stats=True)\n        (relu2): ReLU(inplace=True)\n        (conv2): Conv2d(128, 32, kernel_size=(3, 3), stride=(1, 1), padding=(1, 1), bias=False)\n      )\n      (denselayer4): _DenseLayer(\n        (norm1): BatchNorm2d(160, eps=1e-05, momentum=0.1, affine=True, track_running_stats=True)\n        (relu1): ReLU(inplace=True)\n        (conv1): Conv2d(160, 128, kernel_size=(1, 1), stride=(1, 1), bias=False)\n        (norm2): BatchNorm2d(128, eps=1e-05, momentum=0.1, affine=True, track_running_stats=True)\n        (relu2): ReLU(inplace=True)\n        (conv2): Conv2d(128, 32, kernel_size=(3, 3), stride=(1, 1), padding=(1, 1), bias=False)\n      )\n      (denselayer5): _DenseLayer(\n        (norm1): BatchNorm2d(192, eps=1e-05, momentum=0.1, affine=True, track_running_stats=True)\n        (relu1): ReLU(inplace=True)\n        (conv1): Conv2d(192, 128, kernel_size=(1, 1), stride=(1, 1), bias=False)\n        (norm2): BatchNorm2d(128, eps=1e-05, momentum=0.1, affine=True, track_running_stats=True)\n        (relu2): ReLU(inplace=True)\n        (conv2): Conv2d(128, 32, kernel_size=(3, 3), stride=(1, 1), padding=(1, 1), bias=False)\n      )\n      (denselayer6): _DenseLayer(\n        (norm1): BatchNorm2d(224, eps=1e-05, momentum=0.1, affine=True, track_running_stats=True)\n        (relu1): ReLU(inplace=True)\n        (conv1): Conv2d(224, 128, kernel_size=(1, 1), stride=(1, 1), bias=False)\n        (norm2): BatchNorm2d(128, eps=1e-05, momentum=0.1, affine=True, track_running_stats=True)\n        (relu2): ReLU(inplace=True)\n        (conv2): Conv2d(128, 32, kernel_size=(3, 3), stride=(1, 1), padding=(1, 1), bias=False)\n      )\n    )\n    (transition1): _Transition(\n      (norm): BatchNorm2d(256, eps=1e-05, momentum=0.1, affine=True, track_running_stats=True)\n      (relu): ReLU(inplace=True)\n      (conv): Conv2d(256, 128, kernel_size=(1, 1), stride=(1, 1), bias=False)\n      (pool): AvgPool2d(kernel_size=2, stride=2, padding=0)\n    )\n    (denseblock2): _DenseBlock(\n      (denselayer1): _DenseLayer(\n        (norm1): BatchNorm2d(128, eps=1e-05, momentum=0.1, affine=True, track_running_stats=True)\n        (relu1): ReLU(inplace=True)\n        (conv1): Conv2d(128, 128, kernel_size=(1, 1), stride=(1, 1), bias=False)\n        (norm2): BatchNorm2d(128, eps=1e-05, momentum=0.1, affine=True, track_running_stats=True)\n        (relu2): ReLU(inplace=True)\n        (conv2): Conv2d(128, 32, kernel_size=(3, 3), stride=(1, 1), padding=(1, 1), bias=False)\n      )\n      (denselayer2): _DenseLayer(\n        (norm1): BatchNorm2d(160, eps=1e-05, momentum=0.1, affine=True, track_running_stats=True)\n        (relu1): ReLU(inplace=True)\n        (conv1): Conv2d(160, 128, kernel_size=(1, 1), stride=(1, 1), bias=False)\n        (norm2): BatchNorm2d(128, eps=1e-05, momentum=0.1, affine=True, track_running_stats=True)\n        (relu2): ReLU(inplace=True)\n        (conv2): Conv2d(128, 32, kernel_size=(3, 3), stride=(1, 1), padding=(1, 1), bias=False)\n      )\n      (denselayer3): _DenseLayer(\n        (norm1): BatchNorm2d(192, eps=1e-05, momentum=0.1, affine=True, track_running_stats=True)\n        (relu1): ReLU(inplace=True)\n        (conv1): Conv2d(192, 128, kernel_size=(1, 1), stride=(1, 1), bias=False)\n        (norm2): BatchNorm2d(128, eps=1e-05, momentum=0.1, affine=True, track_running_stats=True)\n        (relu2): ReLU(inplace=True)\n        (conv2): Conv2d(128, 32, kernel_size=(3, 3), stride=(1, 1), padding=(1, 1), bias=False)\n      )\n      (denselayer4): _DenseLayer(\n        (norm1): BatchNorm2d(224, eps=1e-05, momentum=0.1, affine=True, track_running_stats=True)\n        (relu1): ReLU(inplace=True)\n        (conv1): Conv2d(224, 128, kernel_size=(1, 1), stride=(1, 1), bias=False)\n        (norm2): BatchNorm2d(128, eps=1e-05, momentum=0.1, affine=True, track_running_stats=True)\n        (relu2): ReLU(inplace=True)\n        (conv2): Conv2d(128, 32, kernel_size=(3, 3), stride=(1, 1), padding=(1, 1), bias=False)\n      )\n      (denselayer5): _DenseLayer(\n        (norm1): BatchNorm2d(256, eps=1e-05, momentum=0.1, affine=True, track_running_stats=True)\n        (relu1): ReLU(inplace=True)\n        (conv1): Conv2d(256, 128, kernel_size=(1, 1), stride=(1, 1), bias=False)\n        (norm2): BatchNorm2d(128, eps=1e-05, momentum=0.1, affine=True, track_running_stats=True)\n        (relu2): ReLU(inplace=True)\n        (conv2): Conv2d(128, 32, kernel_size=(3, 3), stride=(1, 1), padding=(1, 1), bias=False)\n      )\n      (denselayer6): _DenseLayer(\n        (norm1): BatchNorm2d(288, eps=1e-05, momentum=0.1, affine=True, track_running_stats=True)\n        (relu1): ReLU(inplace=True)\n        (conv1): Conv2d(288, 128, kernel_size=(1, 1), stride=(1, 1), bias=False)\n        (norm2): BatchNorm2d(128, eps=1e-05, momentum=0.1, affine=True, track_running_stats=True)\n        (relu2): ReLU(inplace=True)\n        (conv2): Conv2d(128, 32, kernel_size=(3, 3), stride=(1, 1), padding=(1, 1), bias=False)\n      )\n      (denselayer7): _DenseLayer(\n        (norm1): BatchNorm2d(320, eps=1e-05, momentum=0.1, affine=True, track_running_stats=True)\n        (relu1): ReLU(inplace=True)\n        (conv1): Conv2d(320, 128, kernel_size=(1, 1), stride=(1, 1), bias=False)\n        (norm2): BatchNorm2d(128, eps=1e-05, momentum=0.1, affine=True, track_running_stats=True)\n        (relu2): ReLU(inplace=True)\n        (conv2): Conv2d(128, 32, kernel_size=(3, 3), stride=(1, 1), padding=(1, 1), bias=False)\n      )\n      (denselayer8): _DenseLayer(\n        (norm1): BatchNorm2d(352, eps=1e-05, momentum=0.1, affine=True, track_running_stats=True)\n        (relu1): ReLU(inplace=True)\n        (conv1): Conv2d(352, 128, kernel_size=(1, 1), stride=(1, 1), bias=False)\n        (norm2): BatchNorm2d(128, eps=1e-05, momentum=0.1, affine=True, track_running_stats=True)\n        (relu2): ReLU(inplace=True)\n        (conv2): Conv2d(128, 32, kernel_size=(3, 3), stride=(1, 1), padding=(1, 1), bias=False)\n      )\n      (denselayer9): _DenseLayer(\n        (norm1): BatchNorm2d(384, eps=1e-05, momentum=0.1, affine=True, track_running_stats=True)\n        (relu1): ReLU(inplace=True)\n        (conv1): Conv2d(384, 128, kernel_size=(1, 1), stride=(1, 1), bias=False)\n        (norm2): BatchNorm2d(128, eps=1e-05, momentum=0.1, affine=True, track_running_stats=True)\n        (relu2): ReLU(inplace=True)\n        (conv2): Conv2d(128, 32, kernel_size=(3, 3), stride=(1, 1), padding=(1, 1), bias=False)\n      )\n      (denselayer10): _DenseLayer(\n        (norm1): BatchNorm2d(416, eps=1e-05, momentum=0.1, affine=True, track_running_stats=True)\n        (relu1): ReLU(inplace=True)\n        (conv1): Conv2d(416, 128, kernel_size=(1, 1), stride=(1, 1), bias=False)\n        (norm2): BatchNorm2d(128, eps=1e-05, momentum=0.1, affine=True, track_running_stats=True)\n        (relu2): ReLU(inplace=True)\n        (conv2): Conv2d(128, 32, kernel_size=(3, 3), stride=(1, 1), padding=(1, 1), bias=False)\n      )\n      (denselayer11): _DenseLayer(\n        (norm1): BatchNorm2d(448, eps=1e-05, momentum=0.1, affine=True, track_running_stats=True)\n        (relu1): ReLU(inplace=True)\n        (conv1): Conv2d(448, 128, kernel_size=(1, 1), stride=(1, 1), bias=False)\n        (norm2): BatchNorm2d(128, eps=1e-05, momentum=0.1, affine=True, track_running_stats=True)\n        (relu2): ReLU(inplace=True)\n        (conv2): Conv2d(128, 32, kernel_size=(3, 3), stride=(1, 1), padding=(1, 1), bias=False)\n      )\n      (denselayer12): _DenseLayer(\n        (norm1): BatchNorm2d(480, eps=1e-05, momentum=0.1, affine=True, track_running_stats=True)\n        (relu1): ReLU(inplace=True)\n        (conv1): Conv2d(480, 128, kernel_size=(1, 1), stride=(1, 1), bias=False)\n        (norm2): BatchNorm2d(128, eps=1e-05, momentum=0.1, affine=True, track_running_stats=True)\n        (relu2): ReLU(inplace=True)\n        (conv2): Conv2d(128, 32, kernel_size=(3, 3), stride=(1, 1), padding=(1, 1), bias=False)\n      )\n    )\n    (transition2): _Transition(\n      (norm): BatchNorm2d(512, eps=1e-05, momentum=0.1, affine=True, track_running_stats=True)\n      (relu): ReLU(inplace=True)\n      (conv): Conv2d(512, 256, kernel_size=(1, 1), stride=(1, 1), bias=False)\n      (pool): AvgPool2d(kernel_size=2, stride=2, padding=0)\n    )\n    (denseblock3): _DenseBlock(\n      (denselayer1): _DenseLayer(\n        (norm1): BatchNorm2d(256, eps=1e-05, momentum=0.1, affine=True, track_running_stats=True)\n        (relu1): ReLU(inplace=True)\n        (conv1): Conv2d(256, 128, kernel_size=(1, 1), stride=(1, 1), bias=False)\n        (norm2): BatchNorm2d(128, eps=1e-05, momentum=0.1, affine=True, track_running_stats=True)\n        (relu2): ReLU(inplace=True)\n        (conv2): Conv2d(128, 32, kernel_size=(3, 3), stride=(1, 1), padding=(1, 1), bias=False)\n      )\n      (denselayer2): _DenseLayer(\n        (norm1): BatchNorm2d(288, eps=1e-05, momentum=0.1, affine=True, track_running_stats=True)\n        (relu1): ReLU(inplace=True)\n        (conv1): Conv2d(288, 128, kernel_size=(1, 1), stride=(1, 1), bias=False)\n        (norm2): BatchNorm2d(128, eps=1e-05, momentum=0.1, affine=True, track_running_stats=True)\n        (relu2): ReLU(inplace=True)\n        (conv2): Conv2d(128, 32, kernel_size=(3, 3), stride=(1, 1), padding=(1, 1), bias=False)\n      )\n      (denselayer3): _DenseLayer(\n        (norm1): BatchNorm2d(320, eps=1e-05, momentum=0.1, affine=True, track_running_stats=True)\n        (relu1): ReLU(inplace=True)\n        (conv1): Conv2d(320, 128, kernel_size=(1, 1), stride=(1, 1), bias=False)\n        (norm2): BatchNorm2d(128, eps=1e-05, momentum=0.1, affine=True, track_running_stats=True)\n        (relu2): ReLU(inplace=True)\n        (conv2): Conv2d(128, 32, kernel_size=(3, 3), stride=(1, 1), padding=(1, 1), bias=False)\n      )\n      (denselayer4): _DenseLayer(\n        (norm1): BatchNorm2d(352, eps=1e-05, momentum=0.1, affine=True, track_running_stats=True)\n        (relu1): ReLU(inplace=True)\n        (conv1): Conv2d(352, 128, kernel_size=(1, 1), stride=(1, 1), bias=False)\n        (norm2): BatchNorm2d(128, eps=1e-05, momentum=0.1, affine=True, track_running_stats=True)\n        (relu2): ReLU(inplace=True)\n        (conv2): Conv2d(128, 32, kernel_size=(3, 3), stride=(1, 1), padding=(1, 1), bias=False)\n      )\n      (denselayer5): _DenseLayer(\n        (norm1): BatchNorm2d(384, eps=1e-05, momentum=0.1, affine=True, track_running_stats=True)\n        (relu1): ReLU(inplace=True)\n        (conv1): Conv2d(384, 128, kernel_size=(1, 1), stride=(1, 1), bias=False)\n        (norm2): BatchNorm2d(128, eps=1e-05, momentum=0.1, affine=True, track_running_stats=True)\n        (relu2): ReLU(inplace=True)\n        (conv2): Conv2d(128, 32, kernel_size=(3, 3), stride=(1, 1), padding=(1, 1), bias=False)\n      )\n      (denselayer6): _DenseLayer(\n        (norm1): BatchNorm2d(416, eps=1e-05, momentum=0.1, affine=True, track_running_stats=True)\n        (relu1): ReLU(inplace=True)\n        (conv1): Conv2d(416, 128, kernel_size=(1, 1), stride=(1, 1), bias=False)\n        (norm2): BatchNorm2d(128, eps=1e-05, momentum=0.1, affine=True, track_running_stats=True)\n        (relu2): ReLU(inplace=True)\n        (conv2): Conv2d(128, 32, kernel_size=(3, 3), stride=(1, 1), padding=(1, 1), bias=False)\n      )\n      (denselayer7): _DenseLayer(\n        (norm1): BatchNorm2d(448, eps=1e-05, momentum=0.1, affine=True, track_running_stats=True)\n        (relu1): ReLU(inplace=True)\n        (conv1): Conv2d(448, 128, kernel_size=(1, 1), stride=(1, 1), bias=False)\n        (norm2): BatchNorm2d(128, eps=1e-05, momentum=0.1, affine=True, track_running_stats=True)\n        (relu2): ReLU(inplace=True)\n        (conv2): Conv2d(128, 32, kernel_size=(3, 3), stride=(1, 1), padding=(1, 1), bias=False)\n      )\n      (denselayer8): _DenseLayer(\n        (norm1): BatchNorm2d(480, eps=1e-05, momentum=0.1, affine=True, track_running_stats=True)\n        (relu1): ReLU(inplace=True)\n        (conv1): Conv2d(480, 128, kernel_size=(1, 1), stride=(1, 1), bias=False)\n        (norm2): BatchNorm2d(128, eps=1e-05, momentum=0.1, affine=True, track_running_stats=True)\n        (relu2): ReLU(inplace=True)\n        (conv2): Conv2d(128, 32, kernel_size=(3, 3), stride=(1, 1), padding=(1, 1), bias=False)\n      )\n      (denselayer9): _DenseLayer(\n        (norm1): BatchNorm2d(512, eps=1e-05, momentum=0.1, affine=True, track_running_stats=True)\n        (relu1): ReLU(inplace=True)\n        (conv1): Conv2d(512, 128, kernel_size=(1, 1), stride=(1, 1), bias=False)\n        (norm2): BatchNorm2d(128, eps=1e-05, momentum=0.1, affine=True, track_running_stats=True)\n        (relu2): ReLU(inplace=True)\n        (conv2): Conv2d(128, 32, kernel_size=(3, 3), stride=(1, 1), padding=(1, 1), bias=False)\n      )\n      (denselayer10): _DenseLayer(\n        (norm1): BatchNorm2d(544, eps=1e-05, momentum=0.1, affine=True, track_running_stats=True)\n        (relu1): ReLU(inplace=True)\n        (conv1): Conv2d(544, 128, kernel_size=(1, 1), stride=(1, 1), bias=False)\n        (norm2): BatchNorm2d(128, eps=1e-05, momentum=0.1, affine=True, track_running_stats=True)\n        (relu2): ReLU(inplace=True)\n        (conv2): Conv2d(128, 32, kernel_size=(3, 3), stride=(1, 1), padding=(1, 1), bias=False)\n      )\n      (denselayer11): _DenseLayer(\n        (norm1): BatchNorm2d(576, eps=1e-05, momentum=0.1, affine=True, track_running_stats=True)\n        (relu1): ReLU(inplace=True)\n        (conv1): Conv2d(576, 128, kernel_size=(1, 1), stride=(1, 1), bias=False)\n        (norm2): BatchNorm2d(128, eps=1e-05, momentum=0.1, affine=True, track_running_stats=True)\n        (relu2): ReLU(inplace=True)\n        (conv2): Conv2d(128, 32, kernel_size=(3, 3), stride=(1, 1), padding=(1, 1), bias=False)\n      )\n      (denselayer12): _DenseLayer(\n        (norm1): BatchNorm2d(608, eps=1e-05, momentum=0.1, affine=True, track_running_stats=True)\n        (relu1): ReLU(inplace=True)\n        (conv1): Conv2d(608, 128, kernel_size=(1, 1), stride=(1, 1), bias=False)\n        (norm2): BatchNorm2d(128, eps=1e-05, momentum=0.1, affine=True, track_running_stats=True)\n        (relu2): ReLU(inplace=True)\n        (conv2): Conv2d(128, 32, kernel_size=(3, 3), stride=(1, 1), padding=(1, 1), bias=False)\n      )\n      (denselayer13): _DenseLayer(\n        (norm1): BatchNorm2d(640, eps=1e-05, momentum=0.1, affine=True, track_running_stats=True)\n        (relu1): ReLU(inplace=True)\n        (conv1): Conv2d(640, 128, kernel_size=(1, 1), stride=(1, 1), bias=False)\n        (norm2): BatchNorm2d(128, eps=1e-05, momentum=0.1, affine=True, track_running_stats=True)\n        (relu2): ReLU(inplace=True)\n        (conv2): Conv2d(128, 32, kernel_size=(3, 3), stride=(1, 1), padding=(1, 1), bias=False)\n      )\n      (denselayer14): _DenseLayer(\n        (norm1): BatchNorm2d(672, eps=1e-05, momentum=0.1, affine=True, track_running_stats=True)\n        (relu1): ReLU(inplace=True)\n        (conv1): Conv2d(672, 128, kernel_size=(1, 1), stride=(1, 1), bias=False)\n        (norm2): BatchNorm2d(128, eps=1e-05, momentum=0.1, affine=True, track_running_stats=True)\n        (relu2): ReLU(inplace=True)\n        (conv2): Conv2d(128, 32, kernel_size=(3, 3), stride=(1, 1), padding=(1, 1), bias=False)\n      )\n      (denselayer15): _DenseLayer(\n        (norm1): BatchNorm2d(704, eps=1e-05, momentum=0.1, affine=True, track_running_stats=True)\n        (relu1): ReLU(inplace=True)\n        (conv1): Conv2d(704, 128, kernel_size=(1, 1), stride=(1, 1), bias=False)\n        (norm2): BatchNorm2d(128, eps=1e-05, momentum=0.1, affine=True, track_running_stats=True)\n        (relu2): ReLU(inplace=True)\n        (conv2): Conv2d(128, 32, kernel_size=(3, 3), stride=(1, 1), padding=(1, 1), bias=False)\n      )\n      (denselayer16): _DenseLayer(\n        (norm1): BatchNorm2d(736, eps=1e-05, momentum=0.1, affine=True, track_running_stats=True)\n        (relu1): ReLU(inplace=True)\n        (conv1): Conv2d(736, 128, kernel_size=(1, 1), stride=(1, 1), bias=False)\n        (norm2): BatchNorm2d(128, eps=1e-05, momentum=0.1, affine=True, track_running_stats=True)\n        (relu2): ReLU(inplace=True)\n        (conv2): Conv2d(128, 32, kernel_size=(3, 3), stride=(1, 1), padding=(1, 1), bias=False)\n      )\n      (denselayer17): _DenseLayer(\n        (norm1): BatchNorm2d(768, eps=1e-05, momentum=0.1, affine=True, track_running_stats=True)\n        (relu1): ReLU(inplace=True)\n        (conv1): Conv2d(768, 128, kernel_size=(1, 1), stride=(1, 1), bias=False)\n        (norm2): BatchNorm2d(128, eps=1e-05, momentum=0.1, affine=True, track_running_stats=True)\n        (relu2): ReLU(inplace=True)\n        (conv2): Conv2d(128, 32, kernel_size=(3, 3), stride=(1, 1), padding=(1, 1), bias=False)\n      )\n      (denselayer18): _DenseLayer(\n        (norm1): BatchNorm2d(800, eps=1e-05, momentum=0.1, affine=True, track_running_stats=True)\n        (relu1): ReLU(inplace=True)\n        (conv1): Conv2d(800, 128, kernel_size=(1, 1), stride=(1, 1), bias=False)\n        (norm2): BatchNorm2d(128, eps=1e-05, momentum=0.1, affine=True, track_running_stats=True)\n        (relu2): ReLU(inplace=True)\n        (conv2): Conv2d(128, 32, kernel_size=(3, 3), stride=(1, 1), padding=(1, 1), bias=False)\n      )\n      (denselayer19): _DenseLayer(\n        (norm1): BatchNorm2d(832, eps=1e-05, momentum=0.1, affine=True, track_running_stats=True)\n        (relu1): ReLU(inplace=True)\n        (conv1): Conv2d(832, 128, kernel_size=(1, 1), stride=(1, 1), bias=False)\n        (norm2): BatchNorm2d(128, eps=1e-05, momentum=0.1, affine=True, track_running_stats=True)\n        (relu2): ReLU(inplace=True)\n        (conv2): Conv2d(128, 32, kernel_size=(3, 3), stride=(1, 1), padding=(1, 1), bias=False)\n      )\n      (denselayer20): _DenseLayer(\n        (norm1): BatchNorm2d(864, eps=1e-05, momentum=0.1, affine=True, track_running_stats=True)\n        (relu1): ReLU(inplace=True)\n        (conv1): Conv2d(864, 128, kernel_size=(1, 1), stride=(1, 1), bias=False)\n        (norm2): BatchNorm2d(128, eps=1e-05, momentum=0.1, affine=True, track_running_stats=True)\n        (relu2): ReLU(inplace=True)\n        (conv2): Conv2d(128, 32, kernel_size=(3, 3), stride=(1, 1), padding=(1, 1), bias=False)\n      )\n      (denselayer21): _DenseLayer(\n        (norm1): BatchNorm2d(896, eps=1e-05, momentum=0.1, affine=True, track_running_stats=True)\n        (relu1): ReLU(inplace=True)\n        (conv1): Conv2d(896, 128, kernel_size=(1, 1), stride=(1, 1), bias=False)\n        (norm2): BatchNorm2d(128, eps=1e-05, momentum=0.1, affine=True, track_running_stats=True)\n        (relu2): ReLU(inplace=True)\n        (conv2): Conv2d(128, 32, kernel_size=(3, 3), stride=(1, 1), padding=(1, 1), bias=False)\n      )\n      (denselayer22): _DenseLayer(\n        (norm1): BatchNorm2d(928, eps=1e-05, momentum=0.1, affine=True, track_running_stats=True)\n        (relu1): ReLU(inplace=True)\n        (conv1): Conv2d(928, 128, kernel_size=(1, 1), stride=(1, 1), bias=False)\n        (norm2): BatchNorm2d(128, eps=1e-05, momentum=0.1, affine=True, track_running_stats=True)\n        (relu2): ReLU(inplace=True)\n        (conv2): Conv2d(128, 32, kernel_size=(3, 3), stride=(1, 1), padding=(1, 1), bias=False)\n      )\n      (denselayer23): _DenseLayer(\n        (norm1): BatchNorm2d(960, eps=1e-05, momentum=0.1, affine=True, track_running_stats=True)\n        (relu1): ReLU(inplace=True)\n        (conv1): Conv2d(960, 128, kernel_size=(1, 1), stride=(1, 1), bias=False)\n        (norm2): BatchNorm2d(128, eps=1e-05, momentum=0.1, affine=True, track_running_stats=True)\n        (relu2): ReLU(inplace=True)\n        (conv2): Conv2d(128, 32, kernel_size=(3, 3), stride=(1, 1), padding=(1, 1), bias=False)\n      )\n      (denselayer24): _DenseLayer(\n        (norm1): BatchNorm2d(992, eps=1e-05, momentum=0.1, affine=True, track_running_stats=True)\n        (relu1): ReLU(inplace=True)\n        (conv1): Conv2d(992, 128, kernel_size=(1, 1), stride=(1, 1), bias=False)\n        (norm2): BatchNorm2d(128, eps=1e-05, momentum=0.1, affine=True, track_running_stats=True)\n        (relu2): ReLU(inplace=True)\n        (conv2): Conv2d(128, 32, kernel_size=(3, 3), stride=(1, 1), padding=(1, 1), bias=False)\n      )\n    )\n    (transition3): _Transition(\n      (norm): BatchNorm2d(1024, eps=1e-05, momentum=0.1, affine=True, track_running_stats=True)\n      (relu): ReLU(inplace=True)\n      (conv): Conv2d(1024, 512, kernel_size=(1, 1), stride=(1, 1), bias=False)\n      (pool): AvgPool2d(kernel_size=2, stride=2, padding=0)\n    )\n    (denseblock4): _DenseBlock(\n      (denselayer1): _DenseLayer(\n        (norm1): BatchNorm2d(512, eps=1e-05, momentum=0.1, affine=True, track_running_stats=True)\n        (relu1): ReLU(inplace=True)\n        (conv1): Conv2d(512, 128, kernel_size=(1, 1), stride=(1, 1), bias=False)\n        (norm2): BatchNorm2d(128, eps=1e-05, momentum=0.1, affine=True, track_running_stats=True)\n        (relu2): ReLU(inplace=True)\n        (conv2): Conv2d(128, 32, kernel_size=(3, 3), stride=(1, 1), padding=(1, 1), bias=False)\n      )\n      (denselayer2): _DenseLayer(\n        (norm1): BatchNorm2d(544, eps=1e-05, momentum=0.1, affine=True, track_running_stats=True)\n        (relu1): ReLU(inplace=True)\n        (conv1): Conv2d(544, 128, kernel_size=(1, 1), stride=(1, 1), bias=False)\n        (norm2): BatchNorm2d(128, eps=1e-05, momentum=0.1, affine=True, track_running_stats=True)\n        (relu2): ReLU(inplace=True)\n        (conv2): Conv2d(128, 32, kernel_size=(3, 3), stride=(1, 1), padding=(1, 1), bias=False)\n      )\n      (denselayer3): _DenseLayer(\n        (norm1): BatchNorm2d(576, eps=1e-05, momentum=0.1, affine=True, track_running_stats=True)\n        (relu1): ReLU(inplace=True)\n        (conv1): Conv2d(576, 128, kernel_size=(1, 1), stride=(1, 1), bias=False)\n        (norm2): BatchNorm2d(128, eps=1e-05, momentum=0.1, affine=True, track_running_stats=True)\n        (relu2): ReLU(inplace=True)\n        (conv2): Conv2d(128, 32, kernel_size=(3, 3), stride=(1, 1), padding=(1, 1), bias=False)\n      )\n      (denselayer4): _DenseLayer(\n        (norm1): BatchNorm2d(608, eps=1e-05, momentum=0.1, affine=True, track_running_stats=True)\n        (relu1): ReLU(inplace=True)\n        (conv1): Conv2d(608, 128, kernel_size=(1, 1), stride=(1, 1), bias=False)\n        (norm2): BatchNorm2d(128, eps=1e-05, momentum=0.1, affine=True, track_running_stats=True)\n        (relu2): ReLU(inplace=True)\n        (conv2): Conv2d(128, 32, kernel_size=(3, 3), stride=(1, 1), padding=(1, 1), bias=False)\n      )\n      (denselayer5): _DenseLayer(\n        (norm1): BatchNorm2d(640, eps=1e-05, momentum=0.1, affine=True, track_running_stats=True)\n        (relu1): ReLU(inplace=True)\n        (conv1): Conv2d(640, 128, kernel_size=(1, 1), stride=(1, 1), bias=False)\n        (norm2): BatchNorm2d(128, eps=1e-05, momentum=0.1, affine=True, track_running_stats=True)\n        (relu2): ReLU(inplace=True)\n        (conv2): Conv2d(128, 32, kernel_size=(3, 3), stride=(1, 1), padding=(1, 1), bias=False)\n      )\n      (denselayer6): _DenseLayer(\n        (norm1): BatchNorm2d(672, eps=1e-05, momentum=0.1, affine=True, track_running_stats=True)\n        (relu1): ReLU(inplace=True)\n        (conv1): Conv2d(672, 128, kernel_size=(1, 1), stride=(1, 1), bias=False)\n        (norm2): BatchNorm2d(128, eps=1e-05, momentum=0.1, affine=True, track_running_stats=True)\n        (relu2): ReLU(inplace=True)\n        (conv2): Conv2d(128, 32, kernel_size=(3, 3), stride=(1, 1), padding=(1, 1), bias=False)\n      )\n      (denselayer7): _DenseLayer(\n        (norm1): BatchNorm2d(704, eps=1e-05, momentum=0.1, affine=True, track_running_stats=True)\n        (relu1): ReLU(inplace=True)\n        (conv1): Conv2d(704, 128, kernel_size=(1, 1), stride=(1, 1), bias=False)\n        (norm2): BatchNorm2d(128, eps=1e-05, momentum=0.1, affine=True, track_running_stats=True)\n        (relu2): ReLU(inplace=True)\n        (conv2): Conv2d(128, 32, kernel_size=(3, 3), stride=(1, 1), padding=(1, 1), bias=False)\n      )\n      (denselayer8): _DenseLayer(\n        (norm1): BatchNorm2d(736, eps=1e-05, momentum=0.1, affine=True, track_running_stats=True)\n        (relu1): ReLU(inplace=True)\n        (conv1): Conv2d(736, 128, kernel_size=(1, 1), stride=(1, 1), bias=False)\n        (norm2): BatchNorm2d(128, eps=1e-05, momentum=0.1, affine=True, track_running_stats=True)\n        (relu2): ReLU(inplace=True)\n        (conv2): Conv2d(128, 32, kernel_size=(3, 3), stride=(1, 1), padding=(1, 1), bias=False)\n      )\n      (denselayer9): _DenseLayer(\n        (norm1): BatchNorm2d(768, eps=1e-05, momentum=0.1, affine=True, track_running_stats=True)\n        (relu1): ReLU(inplace=True)\n        (conv1): Conv2d(768, 128, kernel_size=(1, 1), stride=(1, 1), bias=False)\n        (norm2): BatchNorm2d(128, eps=1e-05, momentum=0.1, affine=True, track_running_stats=True)\n        (relu2): ReLU(inplace=True)\n        (conv2): Conv2d(128, 32, kernel_size=(3, 3), stride=(1, 1), padding=(1, 1), bias=False)\n      )\n      (denselayer10): _DenseLayer(\n        (norm1): BatchNorm2d(800, eps=1e-05, momentum=0.1, affine=True, track_running_stats=True)\n        (relu1): ReLU(inplace=True)\n        (conv1): Conv2d(800, 128, kernel_size=(1, 1), stride=(1, 1), bias=False)\n        (norm2): BatchNorm2d(128, eps=1e-05, momentum=0.1, affine=True, track_running_stats=True)\n        (relu2): ReLU(inplace=True)\n        (conv2): Conv2d(128, 32, kernel_size=(3, 3), stride=(1, 1), padding=(1, 1), bias=False)\n      )\n      (denselayer11): _DenseLayer(\n        (norm1): BatchNorm2d(832, eps=1e-05, momentum=0.1, affine=True, track_running_stats=True)\n        (relu1): ReLU(inplace=True)\n        (conv1): Conv2d(832, 128, kernel_size=(1, 1), stride=(1, 1), bias=False)\n        (norm2): BatchNorm2d(128, eps=1e-05, momentum=0.1, affine=True, track_running_stats=True)\n        (relu2): ReLU(inplace=True)\n        (conv2): Conv2d(128, 32, kernel_size=(3, 3), stride=(1, 1), padding=(1, 1), bias=False)\n      )\n      (denselayer12): _DenseLayer(\n        (norm1): BatchNorm2d(864, eps=1e-05, momentum=0.1, affine=True, track_running_stats=True)\n        (relu1): ReLU(inplace=True)\n        (conv1): Conv2d(864, 128, kernel_size=(1, 1), stride=(1, 1), bias=False)\n        (norm2): BatchNorm2d(128, eps=1e-05, momentum=0.1, affine=True, track_running_stats=True)\n        (relu2): ReLU(inplace=True)\n        (conv2): Conv2d(128, 32, kernel_size=(3, 3), stride=(1, 1), padding=(1, 1), bias=False)\n      )\n      (denselayer13): _DenseLayer(\n        (norm1): BatchNorm2d(896, eps=1e-05, momentum=0.1, affine=True, track_running_stats=True)\n        (relu1): ReLU(inplace=True)\n        (conv1): Conv2d(896, 128, kernel_size=(1, 1), stride=(1, 1), bias=False)\n        (norm2): BatchNorm2d(128, eps=1e-05, momentum=0.1, affine=True, track_running_stats=True)\n        (relu2): ReLU(inplace=True)\n        (conv2): Conv2d(128, 32, kernel_size=(3, 3), stride=(1, 1), padding=(1, 1), bias=False)\n      )\n      (denselayer14): _DenseLayer(\n        (norm1): BatchNorm2d(928, eps=1e-05, momentum=0.1, affine=True, track_running_stats=True)\n        (relu1): ReLU(inplace=True)\n        (conv1): Conv2d(928, 128, kernel_size=(1, 1), stride=(1, 1), bias=False)\n        (norm2): BatchNorm2d(128, eps=1e-05, momentum=0.1, affine=True, track_running_stats=True)\n        (relu2): ReLU(inplace=True)\n        (conv2): Conv2d(128, 32, kernel_size=(3, 3), stride=(1, 1), padding=(1, 1), bias=False)\n      )\n      (denselayer15): _DenseLayer(\n        (norm1): BatchNorm2d(960, eps=1e-05, momentum=0.1, affine=True, track_running_stats=True)\n        (relu1): ReLU(inplace=True)\n        (conv1): Conv2d(960, 128, kernel_size=(1, 1), stride=(1, 1), bias=False)\n        (norm2): BatchNorm2d(128, eps=1e-05, momentum=0.1, affine=True, track_running_stats=True)\n        (relu2): ReLU(inplace=True)\n        (conv2): Conv2d(128, 32, kernel_size=(3, 3), stride=(1, 1), padding=(1, 1), bias=False)\n      )\n      (denselayer16): _DenseLayer(\n        (norm1): BatchNorm2d(992, eps=1e-05, momentum=0.1, affine=True, track_running_stats=True)\n        (relu1): ReLU(inplace=True)\n        (conv1): Conv2d(992, 128, kernel_size=(1, 1), stride=(1, 1), bias=False)\n        (norm2): BatchNorm2d(128, eps=1e-05, momentum=0.1, affine=True, track_running_stats=True)\n        (relu2): ReLU(inplace=True)\n        (conv2): Conv2d(128, 32, kernel_size=(3, 3), stride=(1, 1), padding=(1, 1), bias=False)\n      )\n    )\n    (norm5): BatchNorm2d(1024, eps=1e-05, momentum=0.1, affine=True, track_running_stats=True)\n  )\n  (classifier): Linear(in_features=1024, out_features=2, bias=True)\n)"
  },
  {
    "objectID": "salience.html#preprocessing",
    "href": "salience.html#preprocessing",
    "title": "Model Salience Estimation",
    "section": "Preprocessing",
    "text": "Preprocessing\n\nimport torchvision.transforms as transforms\n\n\nif NETWORK == \"xception\":\n    # Transformation specified for the pre-processing\n    transform =
…
